examples/save/pbmc-Jun09-22-32-2022/best_model.pt (torch, 740118 bytes, 68 tensors)

encoder.embedding.weight f4 [1002, 64]
0	0x3db61e9b	0.08892556
1	0xbda24e30	-0.07925069
2	0xbe5925e2	-0.21205857
3	0xbd06ff6b	-0.03295843
4	0x3d403504	0.04692556
5	0x3d437b63	0.047725093
6	0x3dde8c49	0.10866601
7	0x3c2295b8	0.009923391
8	0xbe1fb7eb	-0.15597503
9	0x3d61faf2	0.05517096
10	0xbd29734b	-0.041369718
11	0x3d129b7d	0.035792816
12	0x3c967fc0	0.018371463
13	0xbd49bfb8	-0.049255103
14	0x3d2c46c4	0.042059675
15	0xbd2445d9	-0.040105674
16	0xbdae0469	-0.08496935
17	0xbc000fc9	-0.0078162635
18	0xbd5ce2bf	-0.05392718
19	0x3d7aa0a8	0.06118837
20	0x3d1fdbdd	0.039028037
21	0x3db69421	0.08914972
22	0xbd2744b3	-0.040837
23	0xbd657d0e	-0.056027465
24	0x3d2685ae	0.04065483
25	0x3d24fe4e	0.040281586
26	0x3d2eee51	0.042707745
27	0xbd00a682	-0.031408794
28	0x3d3bf691	0.04588944
29	0xbbb90db9	-0.005647388
30	0x3e207c6d	0.15672465
31	0xbd8f17f3	-0.0698699
32	0x3d162a36	0.03666135
33	0x3e0c4953	0.13699846
34	0x3d3537e2	0.044242747
35	0xb9510015	-0.00019931824
36	0xbdd56774	-0.10420123
37	0xbd2f9cec	-0.04287426
38	0xbdc482a6	-0.09595232
39	0xbd1007f2	-0.035163827
40	0xbcd68218	-0.02618508
41	0xbda7e729	-0.08198387
42	0x3e447f61	0.19189216
43	0xbc96eb54	-0.01842276
44	0x3cfc48bf	0.030796407
45	0x3d3aa553	0.04556782
46	0xbe276294	-0.16346198
47	0x3d9f4334	0.0777649
48	0xbce8d04d	-0.028419638
49	0x3e13fd16	0.14452013
50	0x3db61e96	0.088925526
51	0xbd8de1cd	-0.06927834
52	0x3cfa4ce0	0.030554235
53	0x3cbf38e6	0.023342561
54	0xbda99afb	-0.08281513
55	0x3d0a94a4	0.03383316
56	0x3dfb4839	0.12269635
57	0x3c9adf2d	0.018905247
58	0xbe2f96d6	-0.17147383
59	0xbd22bef6	-0.039732896
60	0xbdb3499c	-0.08754274
61	0x3df3178f	0.11869728
62	0x3d2b5043	0.04182459
63	0xbdb432a3	-0.08798721
64	0x3bbd31e6	0.0057737706
65	0x3c7411d8	0.014896832
66	0xbb929436	-0.0044732345
67	0xbd2869af	-0.041116413
68	0xbd0a9437	-0.033832755
69	0xbca68023	-0.020324772
70	0xbd62d802	-0.055381782
71	0x3dd59329	0.10428459
72	0xbc945353	-0.018106138
73	0xbd0e278b	-0.03470568
74	0xbcd3802f	-0.025817959
75	0xbcaf802e	-0.021423426
76	0xbb5b537d	-0.003346651
77	0x3d0ad8a3	0.033898007
78	0xbcd5a15a	-0.026077915
79	0xbd7159d2	-0.05892355
80	0x3d85f863	0.06541517
81	0xbc1ade46	-0.009452408
82	0x3dbf01a1	0.093264826
83	0x3c72a6e9	0.014810302
84	0x3dcac0d0	0.09900057
85	0x3c579e6c	0.013160329
86	0x3e3c3fe5	0.18383749
87	0xbbf8dec6	-0.007594916
88	0xbd90d586	-0.07071976
89	0xbd0626f4	-0.032751992
90	0xbddc1ba5	-0.1074746
91	0xbd796750	-0.060889542
92	0xbd268efa	-0.040663697
93	0x3d6e8feb	0.05824272
94	0xbd8f6d66	-0.07003288
95	0xbcc2d4f5	-0.023783186
96	0x3c2ca04c	0.010536265
97	0xbdc581ed	-0.09643922
98	0x3cfc720f	0.030816106
99	0x3d192838	0.03739187
100	0xbcfa559c	-0.0305584
101	0x3d314c7c	0.04328583
102	0xbde622be	-0.11237095
103	0xbbb7c330	-0.005607985
104	0x3d21d184	0.03950645
105	0x3d683010	0.05668646
106	0xbdb6a446	-0.089180514
107	0x3da166c1	0.07880927
108	0xbdde9064	-0.10867384
109	0xbd127ee4	-0.035765544
110	0x3bb96ba5	0.005658584
111	0x3c808236	0.01568709
112	0xbe8d888c	-0.2764324
113	0xbcd3e111	-0.025864156
114	0xbce46e34	-0.02788458
115	0xbd8bf236	-0.068333074
116	0xbbe418c6	-0.006960961
117	0x3d936453	0.0719687
118	0xbd36866a	-0.04456178
119	0x3d4a49a4	0.049386635
120	0xbda17c44	-0.0788503
121	0xbcf6394f	-0.030056624
122	0x3de6923c	0.11258361
123	0x3e445cf3	0.19176082
124	0x3d1a4969	0.037667666
125	0xbdb66254	-0.08905473
126	0x3d3b76a6	0.04576745
127	0xbdccff08	-0.10009581
128	0x3daec62a	0.085338905
129	0xbd91ae00	-0.07113266
130	0xbd7cbf57	-0.061705913
131	0x3cf691da	0.030098844
132	0x3de7ec74	0.11324397
133	0x3da11ff8	0.07867426
134	0xbca7ae19	-0.020468758
135	0x3dbe81fe	0.09302138
136	0xbc856b58	-0.016286537
137	0xbd6b2ba2	-0.05741466
138	0xbc56ec85	-0.013117914
139	0xbd50617c	-0.05087422
140	0xbd6c301f	-0.05766308
141	0x3dcb2b80	0.09920406
142	0x3ce5af12	0.028037582
143	0xbd18db0c	-0.037318274
144	0x3cb15267	0.021645738
145	0x3d3a4742	0.045478113
146	0xbdf1e2ca	-0.11810835
147	0x3d3d3265	0.046190638
148	0xbc8e469a	-0.01736765
149	0x3d212f4b	0.039351743
150	0x3db10fc4	0.08645585
151	0x3da7c543	0.081919216
152	0x3d2b14b7	0.041767802
153	0x3ccfd9a2	0.02537233
154	0x3d996677	0.07490247
155	0xbe0f259f	-0.13979195
156	0x3dd56f0d	0.10421572
157	0x3df5d377	0.12003224
158	0xbdd0cc09	-0.101951666
159	0x3e023830	0.12716746
160	0x3ce67f0d	0.028136754
161	0xbe02b65d	-0.12764879
162	0x3d88a17c	0.06671426
163	0xbd7588be	-0.05994486
164	0x3c2cf145	0.01055557
165	0xbc02559e	-0.007954983
166	0x3a4c13ee	0.0007784952
167	0x3c7fab63	0.015604827
168	0xbd3cac9d	-0.046063054
169	0x3ca55302	0.020181183
170	0x3cc728e0	0.024311483
171	0xbce4de13	-0.027937924
172	0xbe0fbeed	-0.14037676
173	0x3daf93bb	0.08573099
174	0x3d7fb593	0.062429022
175	0x3c74bca2	0.014937552
176	0xbe2e34c4	-0.17012316
177	0xbe0d9a83	-0.13828473
178	0x3db5cf28	0.088774025
179	0xbdb3727c	-0.087620705
180	0xbcb02801	-0.02150345
181	0xbd94b1e4	-0.072604924
182	0xbe1a8b49	-0.15092196
183	0xbd3e433a	-0.04645083
184	0x3a0ee171	0.00054504635
185	0xbdbcc865	-0.0921791
186	0x3cd377a9	0.025813894
187	0xbd8e761b	-0.069561206
188	0x3c25c934	0.010118771
189	0x3dc5b87c	0.09654328
190	0x3d0f0b3c	0.034922823
191	0xbe2444f5	-0.1604193
192	0x3df7a896	0.12092702
193	0xbdcc98d0	-0.09990084
194	0xbe326685	-0.1742192
195	0x3d987e20	0.074459314
196	0xbca58056	-0.020202797
197	0x3b60a9d5	0.0034280915
198	0xbdd9b985	-0.10631088
199	0xbd2ffe80	-0.04296732
200	0xbd37e58e	-0.044896655
201	0x3d9873b8	0.074439466
202	0x3e0cee9d	0.13762899
203	0x3ca486e8	0.02008386
204	0x3b6bdae7	0.003598863
205	0x3d12fb3b	0.035884123
206	0xbd891ff3	-0.06695547
207	0x3dab8499	0.083749
208	0x3bf29ca9	0.0074039293
209	0x3bf17831	0.0073690643
210	0xbd202264	-0.039095297
211	0xbcc0203f	-0.023452876
212	0x3bbd2163	0.0057718023
213	0x3dc6eb99	0.097129054
214	0xbd869108	-0.06570631
215	0x3de8217f	0.11334514
216	0xbe24204c	-0.16027945
217	0xbdd74de3	-0.105129026
218	0xbd910be9	-0.0708235
219	0xbd83b409	-0.06430823
220	0x3d8e753e	0.06955956
221	0x3df933d2	0.12168087
222	0x3d89f4fc	0.0673618
223	0x3d6f3ba8	0.058406502
224	0xbb22e875	-0.0024857793
225	0xbbeb1c09	-0.007174973
226	0x3d4b5931	0.049645606
227	0x3d6d3115	0.057908136
228	0x3e08cc84	0.13359267
229	0x3e1dcda8	0.15410483
230	0x3ddd21f4	0.10797492
231	0xbd2c4807	-0.042060878
232	0xbe29bf8d	-0.16576977
233	0xbe484554	-0.19557697
234	0x3dab8978	0.083758295
235	0xbcba9090	-0.02277401
236	0xbdf6e621	-0.12055612
237	0xbd6f2c90	-0.058392107
238	0xba82af8b	-0.0009970529
239	0x3d0411d7	0.032243576
240	0xb9cb65dc	-0.00038795068
241	0x3d40c5c9	0.047063623
242	0xbd82183e	-0.0635228
243	0xbc68d500	-0.014210939
244	0x3da20cef	0.07912623
245	0x3deeb8e3	0.11656358
246	0xbc0f88a4	-0.008760605
247	0x3db7bbe9	0.08971388
248	0x3c1c00ea	0.009521702
249	0xbe39c028	-0.18139708
250	0xbd74078b	-0.059577506
251	0x3d458cc9	0.048229966
252	0xbdb80b35	-0.089865126
253	0x3d8bdfe7	0.06829815
254	0xbd2ddd79	-0.04244754
255	0x3be7bae2	0.0070718387

encoder.enc_norm.weight f4 [64]
0	0x3f8c39fa	1.0955193
1	0x3f6ed304	0.93290734
2	0x3f694904	0.9112704
3	0x3f875ebb	1.0575784
4	0x3f79d29e	0.97587
5	0x3f959384	1.1685643
6	0x3f90d31c	1.1314425
7	0x3fa207f5	1.2658678
8	0x3f8dce3d	1.1078564
9	0x3f93ec0c	1.1556411
10	0x3fb5967f	1.4186553
11	0x3f8b988c	1.0905929
12	0x3f63890c	0.8888099
13	0x3f78b84d	0.9715622
14	0x3f83f009	1.0307628
15	0x3f97a5a5	1.1847426
16	0x3f73531f	0.9504871
17	0x3f819a32	1.0125182
18	0x3f939a52	1.153147
19	0x3f8aa9d7	1.0833081
20	0x3f95540c	1.1666274
21	0x3f862bc2	1.0482104
22	0x3f83a8df	1.028591
23	0x3f84c5ed	1.0372902
24	0x3f5d1e3f	0.86374277
25	0x3f7e343d	0.9929846
26	0x3fa2d95d	1.2722584
27	0x3fa10b11	1.2581502
28	0x3f8a6971	1.0813428
29	0x3f7cac49	0.98700386
30	0x3f8d102e	1.1020563
31	0x3f9a7972	1.2068312
32	0x3f91ed0f	1.140047
33	0x3f88213c	1.0635142
34	0x3f7ed7c2	0.9954797
35	0x3f8e54ec	1.1119666
36	0x3f926439	1.1436836
37	0x3f79fb9a	0.9764954
38	0x3f830218	1.0235014
39	0x3f87cb62	1.0608943
40	0x3f8d1f5f	1.1025199
41	0x3fa6190a	1.2976391
42	0x3f749578	0.9554057
43	0x3f7c8f92	0.9865657
44	0x3f9ad6af	1.2096766
45	0x3f88d253	1.0689186
46	0x3f6a0114	0.91407895
47	0x3f8ad7e5	1.0847136
48	0x3f8d1ff4	1.1025376
49	0x3f942d13	1.1576256
50	0x3f86ad3f	1.052162
51	0x3f831058	1.0239363
52	0x3f83f4ec	1.0309119
53	0x3f8ca831	1.0988828
54	0x3f8a88bf	1.0822982
55	0x3f947210	1.1597309
56	0x3f92ba28	1.146306
57	0x3f9c9cd8	1.2235365
58	0x3f9b7f6d	1.2148262
59	0x3f93ec32	1.1556456
60	0x3f804d4b	1.0023588
61	0x3f9d57a4	1.2292371
62	0x3f709edc	0.939924
63	0x3fa0ba76	1.2556903

encoder.enc_norm.bias f4 [64]
0	0x3ca4c656	0.020114105
1	0xbd46cad0	-0.04853326
2	0xbd5475b8	-0.051870078
3	0x3b5af1c7	0.003340827
4	0xbd1bb753	-0.03801663
5	0xbd0f56ad	-0.03499477
6	0xbc109253	-0.008823949
7	0x3d2a055e	0.041509025
8	0x3c292774	0.010324348
9	0x3a6ce22a	0.00090363866
10	0x3a1400f7	0.0005645896
11	0x3d612019	0.05496225
12	0x3c4a855f	0.0123609
13	0x3d4de55b	0.05026756
14	0x3cd2535d	0.025674516
15	0xbcb10a71	-0.021611424
16	0x3bd804d4	0.0065923724
17	0x3b99619a	0.0046808245
18	0xbbbdc514	-0.005791316
19	0xbc78d586	-0.015187627
20	0x3b5a396a	0.0033298382
21	0xb9f980c7	-0.00047588928
22	0xbc8318cd	-0.016003037
23	0x3c16dc24	0.009207759
24	0xbcd1f409	-0.02562906
25	0x3cbb5da5	0.022871802
26	0xbc84868b	-0.016177436
27	0x3d48282a	0.04886643
28	0x3d958d9c	0.073024005
29	0x3c2e18e2	0.01062605
30	0x3bc90704	0.0061348695
31	0x3c8666db	0.016406467
32	0xbb906227	-0.004406232
33	0x3cad01c3	0.021119004
34	0x3cd0d8be	0.025493976
35	0x3cb965c2	0.02263153
36	0x3c4baa99	0.01243081
37	0xbc7cbdac	-0.015426081
38	0x3c920bca	0.017827887
39	0xbbcbacf4	-0.006215686
40	0xbcfa20eb	-0.030533275
41	0x3c9b50f7	0.018959505
42	0xbce17e5f	-0.027526079
43	0x3ac27075	0.001483454
44	0x3bd88780	0.0066079497
45	0x3c5cf4ef	0.013486131
46	0xbd0741c6	-0.03302171
47	0xbc877d19	-0.016539143
48	0xbc7e59ae	-0.015524311
49	0x3b232540	0.002489403
50	0xbcb38afa	-0.021916855
51	0xbcf999be	-0.030468818
52	0x3ac5a142	0.0015077966
53	0x3cfbdd37	0.030745132
54	0xbbba139c	-0.005678607
55	0x3bd6852d	0.0065466375
56	0x3cbc1b9e	0.022962388
57	0xbbed645f	-0.007244631
58	0x3cb8f948	0.022579804
59	0x3c53936f	0.012913569
60	0xbd82a556	-0.063791916
61	0x3b4c7005	0.0031194699
62	0xbcf857d4	-0.030315317
63	0x3baa2799	0.0051927087

value_encoder.linear1.weight f4 [64, 1]
0	0xbd960bc1	-0.07326461
1	0xbf025836	-0.5091585
2	0x3f31c32e	0.69438446
3	0xbea1ffa8	-0.31640363
4	0x3e8fe144	0.28101552
5	0x3f71fef4	0.9452965
6	0xbf76ef59	-0.96458966
7	0xbe07c64d	-0.1325924
8	0xbe730b16	-0.23734698
9	0xbf503a88	-0.8133931
10	0x3f3be833	0.7340118
11	0x3ebd5e4d	0.36986008
12	0xbdde50fd	-0.10855291
13	0xbec587bf	-0.3858013
14	0xbe47eff0	-0.19525123
15	0x3f14b525	0.58088905
16	0xbf49574f	-0.7864885
17	0xbdabc0b1	-0.08386362
18	0xbf7203f0	-0.9453726
19	0xbf0f04c4	-0.55866647
20	0x3e809a69	0.25117806
21	0x3f18ad91	0.5963984
22	0x3f10bd1b	0.5653855
23	0xbe85cb78	-0.26131797
24	0xbe710c10	-0.23539758
25	0xbf324648	-0.6963849
26	0x3edd9bb0	0.43282843
27	0xbf05ee4f	-0.52316755
28	0xbe450160	-0.19238806
29	0xbe888bf5	-0.2666928
30	0x3f4ec250	0.8076525
31	0xbf323ca3	-0.69623774
32	0x3e020897	0.1269859
33	0xbf2533cc	-0.6453216
34	0x3f59ae4b	0.85031575
35	0x3ea4e4af	0.32205722
36	0x3f3db3a2	0.7410222
37	0x3f4afff6	0.79296815
38	0xbeff90f6	-0.49915284
39	0x3eb4e59d	0.3533143
40	0xbe439ce3	-0.19102816
41	0x3e71c2d2	0.23609474
42	0xbf7e8598	-0.994226
43	0xbf75f371	-0.9607459
44	0x3e1d5330	0.15363765
45	0x3f3e37f9	0.7430416
46	0xbed936c0	-0.42424583
47	0x3e9b5d5d	0.30344668
48	0x3f0947a4	0.5362494
49	0x3f72cc3d	0.9484289
50	0x3e29b6e0	0.16573668
51	0x3e274224	0.16333824
52	0xbd3954e0	-0.04524696
53	0x3ed41b83	0.4142724
54	0x3c5d3d58	0.013503395
55	0x3f82d0e7	1.0220002
56	0x3ed59237	0.41713116
57	0xbf131fb3	-0.57470244
58	0xbf29f752	-0.66393006
59	0x3f007ae9	0.50187546
60	0xbf65241f	-0.8950824
61	0xbf605479	-0.87628895
62	0xbf6a0f1e	-0.91429317
63	0x3f08897a	0.5333477

value_encoder.linear1.bias f4 [64]
0	0x3f4686bd	0.77549344
1	0xbe85c817	-0.2612922
2	0x3e3f9be6	0.18711814
3	0xbf66f51e	-0.9021777
4	0xbe904d8d	-0.28184167
5	0x3e9654bd	0.29361525
6	0x3f3e4eb2	0.7433883
7	0x3e84cff8	0.25939918
8	0x3ef27385	0.4735376
9	0xbe8687da	-0.26275522
10	0xbf10061a	-0.5625931
11	0x3e80e8dd	0.2517766
12	0x3dd94237	0.106083326
13	0x3f4f6b7d	0.8102339
14	0xbeb2f4a0	-0.3495226
15	0xbcf162f8	-0.029466137
16	0x3f3c6243	0.73587435
17	0x3f67f414	0.9060681
18	0xbf7824f0	-0.9693136
19	0x3f8e8aa5	1.1136061
20	0xbe8275c0	-0.2548046
21	0x3eb3f8e0	0.35150814
22	0xbea7d782	-0.32781607
23	0xbf351a10	-0.70742893
24	0xbf1e5964	-0.6185515
25	0xbb87234e	-0.0041240817
26	0x3ec0df60	0.37670422
27	0x3f07d8c9	0.5306516
28	0xbe753a28	-0.23947966
29	0x3f10b800	0.5653076
30	0x3e266ce8	0.16252482
31	0x3f39aca4	0.72529054
32	0x3f610cc6	0.87910116
33	0xbf3cc4b4	-0.73737645
34	0x3f41956b	0.7561862
35	0x3f40dfe7	0.7534165
36	0xbef4ba69	-0.4779847
37	0xbf4bcea5	-0.7961219
38	0x3f7dba19	0.9911209
39	0xbeb65446	-0.3561117
40	0x3f636057	0.8881888
41	0x3df5ceee	0.12002359
42	0xbe41f5c9	-0.18941416
43	0xbd4fa333	-0.05069275
44	0xbe9f54dc	-0.3111943
45	0xbf18d5f4	-0.59701467
46	0xbf0eba74	-0.55753255
47	0xbe3fd368	-0.18732989
48	0xbf023b7c	-0.50872016
49	0xbf152290	-0.58255863
50	0x3f5ceee7	0.86302036
51	0x3f160a49	0.58609444
52	0xbeb7dd48	-0.35911012
53	0x3f7492c2	0.95536435
54	0x3daa2eeb	0.0830973
55	0xbf82f694	-1.02315
56	0x3f685c48	0.9076581
57	0x3f9317b4	1.1491609
58	0x3a393430	0.00070649665
59	0xbe7bb275	-0.24579795
60	0x3f4aaaa4	0.79166627
61	0x3f0b3ec9	0.5439268
62	0xbe7da192	-0.24768665
63	0x3f31404f	0.6923875

value_encoder.linear2.weight f4 [64, 64]
0	0xbd918bdf	-0.071067564
1	0xbdfed750	-0.12443411
2	0x3a34b58e	0.0006893509
3	0x3cacbdb8	0.021086559
4	0xbdc7c50d	-0.09754381
5	0xbd2afeac	-0.04174678
6	0xbd9b2ff2	-0.07577504
7	0x3db19430	0.08670843
8	0xbd0e9d78	-0.034818143
9	0x3d31c5bd	0.04340147
10	0xbcb1b229	-0.021691399
11	0xbb1d4337	-0.0023996362
12	0xbae76b09	-0.00176558
13	0x3d473441	0.048633818
14	0x3d5c1798	0.05373344
15	0x39e2ef70	0.00043284474
16	0xbca2c0cf	-0.019867329
17	0x3d8b1b14	0.06792274
18	0x3dd55bb4	0.104178816
19	0x3e14d3bb	0.14533894
20	0xbd2f0d2e	-0.04273718
21	0xbcf0fd0b	-0.029417535
22	0xbd1db054	-0.038498238
23	0x3da71b64	0.08159521
24	0x3debaf7c	0.1150808
25	0x3dcb6192	0.099307194
26	0xbc089cdc	-0.008338179
27	0x3db7c3f2	0.089729205
28	0xbc4969a0	-0.012293249
29	0x3e18eccf	0.14934085
30	0x3d32a65d	0.043615688
31	0xbdfd517c	-0.123690575
32	0xbdb811e0	-0.089877844
33	0xbc24c320	-0.010056287
34	0x3d94ad59	0.07259626
35	0xbb58b3bb	-0.0033066112
36	0xbdef5d6f	-0.11687743
37	0x3d3ab5e5	0.045583624
38	0xbc36323e	-0.011120377
39	0x3c2b0619	0.0104384655
40	0x3d077e2c	0.03307931
41	0x3d055577	0.03255221
42	0x3ce0b9f3	0.027432417
43	0xbd965d0a	-0.073419645
44	0x3dd468e1	0.103715666
45	0xbe0816a6	-0.1328989
46	0x3d825126	0.06363134
47	0xbde25830	-0.11051977
48	0xbe0daa15	-0.13834412
49	0xbdeeac0a	-0.116539076
50	0x3cc17fb2	0.02362046
51	0x3ccaefb5	0.024772504
52	0xbcbdb750	-0.0231587
53	0x3db6a172	0.08917512
54	0x3d153dd7	0.03643593
55	0xbd26a957	-0.04068884
56	0xbcc521b6	-0.024063926
57	0x3c41f301	0.011837722
58	0x3d850062	0.06494214
59	0x3dcf5cc0	0.101251125
60	0x3c2e3101	0.010631801
61	0x3c4767c5	0.012170737
62	0xbd63c948	-0.05561188
63	0x3e01b706	0.12667474
64	0xbdc0b584	-0.09409621
65	0x3dbd56cc	0.09245071
66	0xbd9177ff	-0.071029656
67	0x3c8418f0	0.016125172
68	0x3dcdecd4	0.10054937
69	0xbccfbbcc	-0.025358103
70	0xbcfa96ea	-0.03058954
71	0xbcdacdba	-0.026709426
72	0x3ca8fe3b	0.020629039
73	0x3da9d77a	0.08293052
74	0x3e25b529	0.16182388
75	0xbd20c22e	-0.039247684
76	0x3d9e007a	0.07714935
77	0xbd8d653b	-0.06904074
78	0xbd859024	-0.06521633
79	0x3dc5734d	0.096411325
80	0xbc37b858	-0.011213385
81	0xbd14c0ed	-0.0363168
82	0x3de5e816	0.112259075
83	0xbd7ce748	-0.061744004
84	0x3dc0bf36	0.094114706
85	0x3daa50db	0.08316203
86	0xbd9ae5c2	-0.07563354
87	0xbdde2418	-0.10846728
88	0xbdb00ef4	-0.08596602
89	0x3bc2cd76	0.005944903
90	0x3dae4cf1	0.08510769
91	0xbd9681f8	-0.07349008
92	0x3c437c20	0.011931449
93	0xbda2ccf1	-0.07949246
94	0x3d67959f	0.056539174
95	0x3cb3e9ed	0.02196213
96	0xbdf47fb0	-0.11938417
97	0x3da8eb6e	0.0824803
98	0xbd94c2ff	-0.07263755
99	0xbda2ff96	-0.079589054
100	0x3d94751c	0.07248899
101	0xbb95800a	-0.0045623826
102	0xbd7fff45	-0.062499303
103	0x3e10614b	0.14099614
104	0x3cbeceb4	0.023291923
105	0xbdb244be	-0.08704518
106	0x3debcdea	0.11513884
107	0xbca9dc34	-0.020734884
108	0x3d9451f6	0.07242195
109	0x3e0432d5	0.12910016
110	0x3d82c85c	0.06385872
111	0x3cbf1ab6	0.023328166
112	0x3d9adb65	0.075613774
113	0x3dbc1281	0.09183217
114	0xbda5b696	-0.08091466
115	0xbd8d84dc	-0.069101065
116	0x3c845598	0.016154096
117	0x3c951202	0.018197063
118	0x3dc60a54	0.09669939
119	0x3d9d185b	0.07670661
120	0xbdc6cbcb	-0.09706839
121	0xbcb4a159	-0.022049593
122	0x3dd6b7d8	0.10484284
123	0xbd89c4e5	-0.06727008
124	0xbdd917f1	-0.106002696
125	0x3d332444	0.043735757
126	0x3b7b4e96	0.0038346401
127	0xbdb69c9e	-0.08916591
128	0xbe0a1a22	-0.13486531
129	0xbe5171be	-0.20453545
130	0x3ddc2b11	0.10750402
131	0x3dad1c4a	0.08452661
132	0xbcef0746	-0.029178273
133	0x3cb26b72	0.02177975
134	0xbe5fe60c	-0.218651
135	0xbdc5c61a	-0.096569255
136	0xbe828c92	-0.25497872
137	0xbe34ea7b	-0.17667572
138	0x3d78d825	0.060753006
139	0xbd329099	-0.04359493
140	0xbd47e474	-0.048801854
141	0xbdf543cc	-0.11975822
142	0x3d9ea5d2	0.077464715
143	0x3d925f7a	0.07147117
144	0xbd6f61fa	-0.058443047
145	0xbe046b6f	-0.12931608
146	0x3c477290	0.01217331
147	0xbddc5d91	-0.10760034
148	0x3cf694dd	0.03010028
149	0xbd74d8da	-0.05977712
150	0x3e0da3b8	0.13831985
151	0x3d6bf1c0	0.057603598
152	0x3d3dc6e4	0.046332255
153	0xbe13b6d6	-0.14425215
154	0x3d25e918	0.0405055
155	0xbd39e459	-0.045383785
156	0xbd8833b8	-0.066504896
157	0xbe09aec3	-0.13445573
158	0xbdc02ba0	-0.09383321
159	0xbe51547f	-0.20442389
160	0xbdc9377c	-0.09825036
161	0xbd91ea20	-0.07124734
162	0xbda91591	-0.082560666
163	0x3b204824	0.0024457062
164	0x3e0d8f5b	0.13824217
165	0x3e189b51	0.14902999
166	0xbd84cb05	-0.064840354
167	0xbc86c307	-0.016450418
168	0xbd22913e	-0.039689295
169	0x3de5243c	0.11188552
170	0xbd582085	-0.052765388
171	0xb92a070d	-0.0001621509
172	0xbe07b06c	-0.13250893
173	0xbd3f36a1	-0.046682958
174	0x3dcb52e6	0.09927921
175	0x3da1ca60	0.07899928
176	0xbd5413b3	-0.0517766
177	0x3c0fa6db	0.008767809
178	0x3d9475c7	0.07249027
179	0xbb2907b0	-0.0025791936
180	0xbd775728	-0.060385853
181	0x3c644c3e	0.013934193
182	0x3cea1439	0.028574096
183	0x3d912aa5	0.07088212
184	0xbc504aef	-0.012713178
185	0xbe477bd9	-0.19480838
186	0xbd226c76	-0.039654218
187	0xbd8c4614	-0.06849304
188	0xbd35fbf4	-0.044429734
189	0xbe58643a	-0.21131983
190	0xbe0eeb41	-0.1395693
191	0xbd853d68	-0.06505853
192	0xbd8841f0	-0.066532016
193	0xbd996fcc	-0.07492027
194	0x3cea4937	0.028599365
195	0x3dd327fe	0.10310362
196	0xbe0ba968	-0.13638842
197	0x3d9ca94d	0.07649479
198	0xbcc7f2e9	-0.02440782
199	0xbd9108a7	-0.070817284
200	0x3df43353	0.11923852
201	0xbd876c75	-0.066124834
202	0xbdbe783d	-0.093002774
203	0x3dabea1d	0.08394263
204	0x3d4aa6e0	0.04947555
205	0x3d61df05	0.05514433
206	0xbc6b9f10	-0.014381185
207	0xbca43380	-0.020044088
208	0xbde28a2f	-0.11061513
209	0x3dd91263	0.1059921
210	0xbdca63fa	-0.0988235
211	0x3c7e5e90	0.015525475
212	0xbcac32ab	-0.021020254
213	0xbcb4f834	-0.022091009
214	0xbd652770	-0.055945814
215	0xbd57b840	-0.05266595
216	0x3d83706e	0.06417929
217	0xbc6380ae	-0.01388566
218	0xbdabbec4	-0.08385995
219	0xbd211e39	-0.039335463
220	0xbcbd9700	-0.023143291
221	0x3cfa5b2e	0.030561056
222	0xbc89f92d	-0.01684245
223	0x3cfee8f2	0.031116936
224	0xbdbd26da	-0.09235926
225	0xbd1c0970	-0.038094938
226	0x3d2e74fd	0.042592037
227	0x3d206f52	0.039168663
228	0xbd15fe86	-0.036619686
229	0xbda3eb2d	-0.080038406
230	0x3d2343fb	0.039859753
231	0xbdc2cf6e	-0.0951222
232	0xbd9ea5f7	-0.07746499
233	0xbd90dadd	-0.07072995
234	0xbd420f79	-0.047378037
235	0x3dd00d06	0.10158734
236	0x3c049f3e	0.008094607
237	0xbb740328	-0.0037233327
238	0x3d06146c	0.03273432
239	0xbde1cd5e	-0.11025499
240	0x3d643918	0.05571851
241	0xbde14222	-0.10998942
242	0x3dd78a0f	0.105243795
243	0xbda281b4	-0.07934895
244	0x3d6e4948	0.058175355
245	0x3d741707	0.059592273
246	0x3ddd7119	0.10812587
247	0xbde4a9fc	-0.111652344
248	0x3df6a6d3	0.12043538
249	0x3d2752f6	0.040850602
250	0x3dd9e1be	0.1063876
251	0x3dc026f4	0.0938243
252	0x3daa47cd	0.08314476
253	0x3ca20bf5	0.019781092
254	0x3c7ee8c7	0.015558428
255	0x3cb2b050	0.021812588

value_encoder.linear2.bias f4 [64]
0	0x3c8c33a6	0.017114472
1	0xbdbfcf18	-0.09365672
2	0xbd63d70e	-0.055625014
3	0xbd05cbf8	-0.032665223
4	0xbd1bc347	-0.038028028
5	0xbd167043	-0.036728155
6	0xbd82ad86	-0.06380753
7	0x3d4ce3f3	0.050022077
8	0x3db8afe8	0.090179265
9	0x3d8a3452	0.067482606
10	0xbd05eac8	-0.032694608
11	0xbd2432d2	-0.04008753
12	0x3e006141	0.125371
13	0xbd820875	-0.06349269
14	0xbd8fbb04	-0.07018092
15	0xbd0dbeaa	-0.03460566
16	0xbe14bdd1	-0.14525534
17	0xbdc99981	-0.09843732
18	0x3dbec783	0.093153976
19	0xbc8b7142	-0.017021779
20	0x3cda9e01	0.02668667
21	0x3e05037e	0.12989613
22	0xbe0a9a5c	-0.13535446
23	0xbda8c6b3	-0.08241024
24	0xbdf3a3db	-0.11896487
25	0xbc8076c5	-0.015681634
26	0x3cd5ac0c	0.026083015
27	0x3cc171a7	0.023613764
28	0xbddc5ed7	-0.10760277
29	0xbe0414b9	-0.1289853
30	0xbc7c16c8	-0.015386291
31	0x3db5d337	0.08878177
32	0x3d98020e	0.07422267
33	0x3df6fad6	0.12059562
34	0x3dbbf0af	0.09176766
35	0x3e1c5a8d	0.15268917
36	0x3dda6355	0.10663477
37	0x3d3fecdb	0.046856742
38	0x3e06a92b	0.1315047
39	0x3da29a17	0.079395466
40	0xbd594adb	-0.053049903
41	0xbd35df4a	-0.0444024
42	0x3d94d6c0	0.07267523
43	0xbdcd2706	-0.10017209
44	0xbca77b5b	-0.020444563
45	0x3e0aeef4	0.13567716
46	0xbdc28aa4	-0.094991
47	0x3d42ff96	0.047607027
48	0x3e0f768a	0.14010063
49	0xbd91a3a6	-0.071112916
50	0x3dc4cabe	0.096089825
51	0xbaa94668	-0.001291466
52	0xbd2cc68b	-0.042181533
53	0x3dca4994	0.09877315
54	0x3da97b32	0.08275451
55	0x3cfd661e	0.030932482
56	0xbd626ba2	-0.055278428
57	0x3d572ad3	0.052531075
58	0x3c8f8f99	0.017524527
59	0x3cc902f3	0.02453754
60	0xbca9f29c	-0.020745568
61	0xbd6b09d8	-0.057382435
62	0xbdc38688	-0.09547144
63	0x3c1b4fb1	0.009479449

value_encoder.norm.weight f4 [64]
0	0x3f50da58	0.81583166
1	0x3f6cc135	0.9248231
2	0x3f64743f	0.8923988
3	0x3f4316b1	0.762065
4	0x3f822d8c	1.017015
5	0x3f519484	0.8186724
6	0x3f5803b2	0.8438064
7	0x3f611f95	0.87938815
8	0x3f44e9df	0.7691936
9	0x3f3849f7	0.7198786
10	0x3f556c91	0.83368784
11	0x3f373162	0.7155973
12	0x3f507661	0.8143063
13	0x3f6c0142	0.9218942
14	0x3f6a4bd5	0.9152196
15	0x3f3c6e4b	0.73605794
16	0x3f7b883a	0.9825474
17	0x3f74c276	0.95609224
18	0x3f535ad2	0.82560456
19	0x3f74866d	0.9551762
20	0x3f55e935	0.8355897
21	0x3f4c854c	0.79890895
22	0x3f6bc443	0.92096347
23	0x3f81abb4	1.0130525
24	0x3f4c8fea	0.79907095
25	0x3f6d61de	0.9272746
26	0x3f0354b9	0.5130115
27	0x3f3ea84f	0.7447557
28	0x3f6ce5ed	0.9253834
29	0x3f6caeb9	0.92454106
30	0x3f4e000f	0.8046884
31	0x3f22e01d	0.6362322
32	0x3f2da28f	0.6782617
33	0x3f5a6f0b	0.8532569
34	0x3f6705d7	0.90243286
35	0x3f579caa	0.84223425
36	0x3f639895	0.88904697
37	0x3f7cb170	0.9870825
38	0x3f777d32	0.9667541
39	0x3f51b998	0.8192382
40	0x3f51dd79	0.81978565
41	0x3f5d6ea0	0.86496925
42	0x3f5e6fab	0.8688914
43	0x3f6e2bc2	0.9303552
44	0x3f5c08c8	0.859509
45	0x3f7b0d3e	0.9806708
46	0x3ed1dda8	0.40989423
47	0x3f4c6f44	0.7985728
48	0x3f5ea1c6	0.86965597
49	0x3f479b45	0.779713
50	0x3f60447f	0.87604517
51	0x3f78cd21	0.97188
52	0x3f6f8dac	0.9357555
53	0x3f55a45e	0.8345393
54	0x3f6556db	0.89585656
55	0x3ef980e5	0.4873115
56	0x3f4c5bb4	0.7982743
57	0x3edab113	0.42713222
58	0x3f1fee62	0.6247312
59	0x3f49fad2	0.78898346
60	0x3f6548f9	0.8956447
61	0x3f221084	0.6330645
62	0x3f8cd962	1.100384
63	0x3f5e0096	0.86719644

value_encoder.norm.bias f4 [64]
0	0x3d350c75	0.044201333
1	0x3da14c19	0.078758426
2	0x3d31a000	0.04336548
3	0x3d94b475	0.07260982
4	0x3d0db767	0.034598734
5	0xbc8a23c8	-0.016862765
6	0x3dc4fd4c	0.09618625
7	0xbcb0bf03	-0.021575456
8	0x3c2d9476	0.010594478
9	0x3c43490b	0.01191927
10	0xbcd93a40	-0.026517034
11	0x3e3a89fe	0.18216702
12	0x3cc26916	0.02373175
13	0xbc7007a9	-0.014650264
14	0x3cbf3888	0.023342386
15	0x3d783d62	0.060605414
16	0xbb8ea3fe	-0.0043530455
17	0x3c4abd50	0.012374237
18	0x3d91c8d3	0.07118382
19	0xbc9f11a5	-0.019417593
20	0x3bc56101	0.0060235267
21	0x3c2fdc13	0.010733622
22	0xbb642a3c	-0.0034815213
23	0x3cb43521	0.02199799
24	0x3cbcc4a4	0.023042984
25	0x3cef2ad6	0.02919523
26	0x3c84c6e6	0.016208123
27	0x3e109b68	0.14121783
28	0xbd8a21a2	-0.06744696
29	0xbd0c39bf	-0.03423476
30	0x3d1a7f8b	0.03771929
31	0xbcc7f5f5	-0.024409274
32	0x3d83b27b	0.06430527
33	0x3cc7f177	0.024407132
34	0xbd6e0b63	-0.058116328
35	0x3c8d6b60	0.017263114
36	0x3bdf877f	0.0068215723
37	0x3d769fb1	0.060210887
38	0x3d35bee9	0.04437152
39	0x3d4fefd9	0.050765846
40	0x3e080b50	0.13285565
41	0xbd04060b	-0.032232326
42	0x3c73e1dc	0.014885392
43	0xbaa84d7d	-0.0012840476
44	0x3cc80823	0.024417942
45	0x3d8c8b34	0.068624884
46	0xbe5449e2	-0.20731309
47	0x3c2b034a	0.010437796
48	0x3d24e295	0.040255148
49	0x3df8cf81	0.12148953
50	0x3c8d8a1c	0.01727777
51	0x3ca7a03f	0.020462153
52	0x3bdbd7b6	0.0067090644
53	0x3cc2d5d1	0.023783596
54	0x3d299461	0.04140127
55	0x3bfa2afc	0.0076345187
56	0x3cad496c	0.021153174
57	0xbb5866b7	-0.0033020207
58	0xbbbffe47	-0.0058591696
59	0x3b0af772	0.0021204618
60	0x3d1cc127	0.038270142
61	0x3c0d018a	0.008606324
62	0x3d009612	0.03139312
63	0x3ce048f3	0.027378535

transformer_encoder.layers.0.self_attn.in_proj_weight f4 [192, 64]
0	0xbe0e195f	-0.13876866
1	0x3ddc9ac3	0.10771706
2	0x3df66eba	0.12032838
3	0x3d10e2e6	0.035372637
4	0x3e07f4bc	0.13276953
5	0xbe2bfe2b	-0.16796176
6	0x3e1800b8	0.14844024
7	0x3d71e353	0.059054684
8	0xbd90154f	-0.07035314
9	0xbb5a9c1c	-0.0033357209
10	0xbdd07d00	-0.10180092
11	0xbd30a7bc	-0.043128714
12	0xbd88b1f6	-0.06674568
13	0xbd379eed	-0.044829298
14	0x3e1a17ea	0.15048185
15	0xbdad21d1	-0.084537156
16	0x3bf938e8	0.0076056607
17	0x3ded5c8e	0.11589919
18	0x3c8d8303	0.017274385
19	0x3d134cfb	0.035962086
20	0x3d176b1d	0.036967386
21	0x3ccd01a3	0.025025195
22	0xbd5639ef	-0.052301344
23	0xbe3e609c	-0.18591541
24	0xbce47a75	-0.027890423
25	0x3c40cba8	0.011767305
26	0xbe4f1a35	-0.20224841
27	0xbbc01eb2	-0.005863034
28	0xbdc74feb	-0.0973204
29	0xbce7c0bd	-0.028290147
30	0x3e1c1ede	0.1524615
31	0xbd765698	-0.060141176
32	0x3e34e068	0.17663729
33	0xbd47e06f	-0.04879802
34	0x3cda543a	0.02665149
35	0xbca2f755	-0.019893328
36	0xbd904458	-0.070442855
37	0xbd95b9df	-0.07310843
38	0xbcd89b39	-0.026441203
39	0xbd93fc07	-0.07225805
40	0x3de20a85	0.11037163
41	0x3b8138a7	0.003943521
42	0xbcd8b7d9	-0.026454853
43	0xbc0f66f9	-0.008752578
44	0xbd9ea7e2	-0.07746865
45	0xba64add5	-0.0008723413
46	0xbe3b19c4	-0.18271548
47	0xbcb3d049	-0.021949904
48	0xbdc4bda1	-0.09606481
49	0x3ca92e98	0.0206521
50	0x3d3eeb3f	0.046611067
51	0xbdccd71a	-0.10001965
52	0x3c3454a3	0.011006507
53	0xbd499b23	-0.049220216
54	0x3db7541b	0.08951589
55	0x3e14b24f	0.14521144
56	0xbe040ea5	-0.12896211
57	0xbe087e72	-0.13329485
58	0x3c84698f	0.016163616
59	0xbdfa8d69	-0.12234003
60	0xbd57931a	-0.05263052
61	0x3d13f6b2	0.03612394
62	0x3d88f9cd	0.06688271
63	0x3cc51ebb	0.024062505
64	0x3d62dfb6	0.05538913
65	0x3c1a52c9	0.009419152
66	0xbb458a87	-0.0030142383
67	0xbcee042b	-0.029054722
68	0xbdf5e6ce	-0.12006913
69	0x3d2fcb92	0.04291875
70	0x3db6c3bb	0.089240514
71	0xbcf32d32	-0.029684637
72	0xbd9be91c	-0.076128215
73	0xbdf98c54	-0.121849686
74	0x3d94f37f	0.07273006
75	0xbd1587f9	-0.036506627
76	0xbdb58195	-0.088626064
77	0xbd5f9381	-0.05458403
78	0xbd3c789d	-0.046013463
79	0xbd9f3c74	-0.077752024
80	0x3de9530a	0.113927916
81	0x3db72dd8	0.08944291
82	0xbd45cace	-0.048289113
83	0x3d5a301e	0.053268544
84	0x3e02ec16	0.12785372
85	0xbd81fbc5	-0.06346849
86	0xbdb1370b	-0.08653077
87	0x3d27d203	0.040971767
88	0xbd7be322	-0.061495908
89	0x3d2ad82f	0.041710075
90	0x3dbe7191	0.09299005
91	0x3e12d1a2	0.14337781
92	0x3daf65b8	0.08564323
93	0x3d45154c	0.048116013
94	0xbe0db209	-0.13837446
95	0x3c08a054	0.008339006
96	0xbdb75cbb	-0.08953234
97	0x3cf4f3a8	0.02990134
98	0x3c530178	0.012878768
99	0x3bbc1e34	0.005740905
100	0x3e0d072c	0.13772267
101	0x3e1391da	0.14411107
102	0x3c81c868	0.015842631
103	0xbc75a4ae	-0.014992876
104	0xbcf68610	-0.030093223
105	0x3c931e9a	0.017958928
106	0x3dea91d5	0.114535965
107	0x3da8f539	0.082498975
108	0x3d349a44	0.04409243
109	0xbd18a97b	-0.037271004
110	0x3da9c3b1	0.08289278
111	0xbd440b2a	-0.04786221
112	0xbd7e8fba	-0.062148787
113	0x3e078e9f	0.13238
114	0x3d7839f6	0.06060215
115	0xbcef5c1e	-0.02921873
116	0x3c685a0c	0.014181625
117	0xbd6117d6	-0.054954372
118	0xbda0d175	-0.07852451
119	0xbb4dc5f0	-0.0031398498
120	0x3dab99ee	0.08378969
121	0x3df05ffe	0.11737059
122	0x3dace3e7	0.084419064
123	0x3cdffd5c	0.02734249
124	0xbe16df31	-0.14733578
125	0xbdf1050e	-0.11768542
126	0xbd943add	-0.0723779
127	0xbdb65ad7	-0.08904045
128	0xbdb5d9e8	-0.08879453
129	0xbc3bb435	-0.011456539
130	0xbd9e11fa	-0.077182725
131	0x3a732881	0.000927575
132	0xbe02382a	-0.12716737
133	0x3e012f39	0.1261567
134	0xbd6c91f3	-0.057756376
135	0xbd14a6a7	-0.036291745
136	0xbd8c4a72	-0.06850137
137	0x3d5f6dd9	0.05454812
138	0x3dbd4181	0.092410095
139	0xbe5de315	-0.21668656
140	0x3bab4c16	0.005227576
141	0x3e51a539	0.20473184
142	0x3dbdc376	0.09265797
143	0xbe15c1f6	-0.14624771
144	0xbe2cc6a3	-0.16872649
145	0xbdfe1d8e	-0.12407981
146	0x3d15ebbc	0.036601767
147	0x3d3a6e08	0.04551509
148	0x3d5f144a	0.05446271
149	0x3dcf3fb5	0.10119573
150	0xbc8e7b61	-0.017392816
151	0x3d07c224	0.03314413
152	0xbd6e4c2a	-0.058178104
153	0x3d330864	0.043709174
154	0x3d9fcba8	0.07802516
155	0xbddce9d7	-0.10786789
156	0x3e5096f5	0.20370086
157	0x3d1b5526	0.037923
158	0xbcfbea53	-0.030751383
159	0xbd55477e	-0.052070133
160	0xbda8ea20	-0.08247781
161	0x3d1dd515	0.03853329
162	0x3dc10356	0.094244644
163	0xbd1bc9d7	-0.038034286
164	0xbd972101	-0.07379342
165	0x3c2400bb	0.01000994
166	0x3cb1f7b4	0.02172456
167	0xbd9b1db9	-0.075740285
168	0xbe3ad01a	-0.18243447
169	0xbd7ce799	-0.061744306
170	0x3ca453fa	0.020059574
171	0xbc9e211c	-0.019302897
172	0xbc5d60d3	-0.013511854
173	0xbd6cc41e	-0.05780422
174	0x3d718c8b	0.058971923
175	0xbe151477	-0.14558588
176	0xbd8c393d	-0.06846855
177	0xbd3b66ef	-0.045752462
178	0xbc4932a6	-0.012280142
179	0xbcbe1be2	-0.023206655
180	0xbdd60bc9	-0.104514666
181	0x3cdc3ace	0.026883509
182	0xbdc04d73	-0.09389772
183	0xbcfb4422	-0.030672137
184	0x3cced008	0.025245681
185	0x3ba63a32	0.0050728554
186	0x3d9d060e	0.076671705
187	0xbd0cabe7	-0.034343626
188	0xbcb3b879	-0.02193855
189	0xb78f0c98	-1.7052793e-05
190	0xbe0ddca9	-0.13853706
191	0x3d4ed307	0.05049422
192	0xbe05138c	-0.12995738
193	0x3d8026f7	0.06257432
194	0xbcd6aee5	-0.026206443
195	0x3e1431a9	0.14472069
196	0x3b9c1d67	0.004764247
197	0xbd4633e2	-0.048389323
198	0xbb806cef	-0.003919236
199	0xbdfab95b	-0.12242385
200	0x3dfa885a	0.12233038
201	0x3bdc5b10	0.0067247227
202	0xbd2dcfc8	-0.042434484
203	0x3dcdc70c	0.10047731
204	0xbc010f62	-0.007877203
205	0xbca8cfeb	-0.020606956
206	0xbe0d34ae	-0.13789627
207	0x3d332e8e	0.04374557
208	0x3d6d3f11	0.057921473
209	0xbd2d6917	-0.04233655
210	0xbdae8667	-0.08521729
211	0xbd34330e	-0.043994002
212	0xbd165c8f	-0.036709365
213	0xbd3888b9	-0.045052264
214	0xbd61c737	-0.055121627
215	0xbd9f6ad8	-0.07784051
216	0x3c6445ff	0.013932704
217	0x3cee8004	0.029113777
218	0xbe3e23cf	-0.18568347
219	0x3e2830fd	0.16424938
220	0x3d0230e2	0.0317849
221	0x3dc885bb	0.09791132
222	0xbd54db61	-0.05196703
223	0xbe07af4a	-0.13250461
224	0x3db7cad6	0.08974235
225	0x3e3789b8	0.1792363
226	0x3e092486	0.13392839
227	0x3d16109a	0.036636926
228	0x3c9b9ecc	0.018996619
229	0x3d8320c3	0.06402733
230	0x3ddd78b4	0.10814038
231	0x3cb500f6	0.022095185
232	0x3ca47ef6	0.020080071
233	0xbe26234b	-0.162244
234	0x3e1bc081	0.15210153
235	0x3c97b5cc	0.018519305
236	0xbe066a6f	-0.13126539
237	0x3dbe61db	0.09296008
238	0x3da2f558	0.07956952
239	0x3db67ae7	0.089101605
240	0xbd2afa51	-0.041742627
241	0x3d6ec2ad	0.058291126
242	0x3cf831a9	0.030297117
243	0x3da65ff8	0.08123773
244	0xbd840a7c	-0.06447312
245	0xbd6f464a	-0.058416642
246	0x3c5758a1	0.013143689
247	0xbd37c64c	-0.044866845
248	0x3d9bd72b	0.076093994
249	0xbe07bd90	-0.13255906
250	0xbe0adaaa	-0.13559976
251	0xbca7e3df	-0.0204944
252	0xbd81f245	-0.06345037
253	0x3deed2c0	0.11661291
254	0xbd251ed6	-0.04031261
255	0xbda80436	-0.08203928

transformer_encoder.layers.0.self_attn.in_proj_bias f4 [192]
0	0xbd544cd6	-0.05183109
1	0xbc55599d	-0.013021854
2	0x3dea1e16	0.1143152
3	0xbdbbb960	-0.09166217
4	0x3ca7b0c0	0.020470023
5	0x3d2ddd89	0.0424476
6	0xbc702f7a	-0.014659757
7	0x3d93cf61	0.07217289
8	0x3d4352b7	0.047686305
9	0x3d796dde	0.060895793
10	0xbda4af6b	-0.08041271
11	0xbe0bbe17	-0.13646732
12	0x3dc12a98	0.09431952
13	0xbd56ffa3	-0.052489888
14	0xbdd58dc5	-0.10427431
15	0xbcb3fb36	-0.021970373
16	0xbd9aeb36	-0.07564394
17	0x3d274576	0.040837727
18	0xbca5ccee	-0.02023932
19	0x3d2b2950	0.041787446
20	0xbdf0ea27	-0.11763411
21	0x3b92d043	0.004480393
22	0x3cea6b67	0.028615667
23	0xbc2183ca	-0.009858081
24	0xbb8e2534	-0.004337931
25	0xbdc2f1c5	-0.0951877
26	0x3e09c379	0.13453473
27	0xbb9455f2	-0.004526847
28	0x3d84b2f9	0.06479449
29	0xbd6cf095	-0.057846624
30	0xbb82a19f	-0.003986552
31	0xbcbf3af9	-0.02334355
32	0xbdddfca2	-0.108392015
33	0x3da7ccd7	0.08193367
34	0x3e22c2c4	0.1589461
35	0xbdfd3cf2	-0.1236514
36	0x3dfeab91	0.124350674
37	0x3b373fce	0.0027961615
38	0xbcf244fe	-0.029573914
39	0x3de10cfc	0.10988805
40	0xbdec8659	-0.11549062
41	0xbddf0c01	-0.108909614
42	0x3dc116b7	0.09428161
43	0xbde6b634	-0.11265221
44	0x3d217869	0.039421473
45	0xbe0ad11d	-0.13556333
46	0xbdcb6f09	-0.09933288
47	0x3b6714e6	0.003526026
48	0x3db6fbd2	0.0893475
49	0xbde9138f	-0.11380684
50	0x3d90ee9e	0.070767626
51	0x3d099135	0.033585746
52	0xbd645e1a	-0.055753805
53	0x3dbb1709	0.09135253
54	0x3de65a61	0.11247707
55	0xbd1c02b8	-0.03808853
56	0x3d7e3e74	0.06207128
57	0xbdb77c47	-0.08959251
58	0x3d4e7994	0.050408915
59	0x3d722a96	0.059122644
60	0x3db6c5cd	0.08924446
61	0xbd8141c2	-0.063113704
62	0x3d8976d6	0.06712119
63	0xba7cebf0	-0.00096481945
64	0x3a4b32d2	0.0007751408
65	0xb91f7150	-0.00015205634
66	0x39b4944b	0.00034442762
67	0xb8fac91e	-0.0001195839
68	0xba7cdbd8	-0.00096457964
69	0x3a70c1ad	0.00091841334
70	0x3ab93227	0.0014129326
71	0x3a8cd094	0.0010743313
72	0xba0aa288	-0.0005288501
73	0x3a6bfeaa	0.00090024865
74	0x3a926ae4	0.0011170772
75	0x3c04bb5f	0.008101313
76	0xba99ef2d	-0.0011744254
77	0xbb3bad41	-0.0028637203
78	0xbb035d94	-0.002004479
79	0x380a3f20	3.2960554e-05
80	0xba372fae	-0.0006988001
81	0x3aa5fda6	0.0012664094
82	0x3817fd1b	3.623693e-05
83	0x3b581403	0.0032970912
84	0x3a3946f8	0.0007067765
85	0x3a67e284	0.0008845704
86	0xba7603c4	-0.00093847164
87	0x3b02e5aa	0.0019973316
88	0xba16a4be	-0.00057465944
89	0x3a0a302d	0.0005271461
90	0x3a199add	0.0005859563
91	0x3adfe4c9	0.0017081733
92	0xbab93e49	-0.0014132942
93	0xb910e5be	-0.00013818496
94	0x3966c486	0.0002200772
95	0xbae1c9e7	-0.0017226309
96	0x3b0d5a5d	0.0021568753
97	0xb7e22b33	-2.6961416e-05
98	0x3bcf242f	0.006321452
99	0xbbdcea84	-0.0067418236
100	0x3aba3481	0.0014206321
101	0xbab87065	-0.0014071582
102	0xbadebf67	-0.0016994298
103	0xbb59a78e	-0.0033211443
104	0x3ad07ebc	0.001590691
105	0xbaaeb5d4	-0.0013329335
106	0xbaab475d	-0.0013067533
107	0xb884eff0	-6.338942e-05
108	0x3a8bb476	0.001065864
109	0xba3a02c0	-0.00070957467
110	0xba7afd31	-0.00095744716
111	0xb91d15cc	-0.00014980807
112	0x3ac8f874	0.0015332834
113	0xbb1758ad	-0.0023093626
114	0x3bdbf7f5	0.0067129084
115	0x3ac17fb1	0.0014762786
116	0x3b32b0c2	0.0027266
117	0x38ff0811	0.0001216085
118	0x3b358fac	0.0027704043
119	0xbb1271bb	-0.002234562
120	0xba0a0d30	-0.00052662473
121	0xbbcac84c	-0.006188428
122	0xba9c9bbe	-0.001194827
123	0xb96e7523	-0.00022741086
124	0x3ab0d740	0.0013491884
125	0xbb619fd1	-0.0034427533
126	0xba44c3e3	-0.0007505996
127	0xb8a2f47a	-7.770299e-05
128	0xbca20715	-0.019778768
129	0x3ce96c94	0.028494157
130	0x3c893997	0.016751094
131	0x3cfd07fd	0.030887598
132	0x3cf38c9f	0.02973014
133	0xbcd9c517	-0.026583238
134	0xbd338787	-0.04383042
135	0xbcf27979	-0.029598938
136	0x3d3b1b02	0.045680054
137	0x3cb30f2f	0.021857826
138	0x3c642a8a	0.013926158
139	0x3b42870a	0.002968254
140	0xbd3562f7	-0.044283833
141	0xbd1923b5	-0.03738757
142	0x3cdbc36c	0.026826583
143	0xbd45b17f	-0.048264977
144	0xbc0cf540	-0.008603394
145	0x3d9335d5	0.07188002
146	0x3bb22351	0.005436339
147	0xbc87260e	-0.016497638
148	0xbc6d9d3b	-0.014502819
149	0xbc666a97	-0.014063499
150	0x3c13e6f3	0.009027231
151	0xbbdec253	-0.0067980676
152	0x3caa04e9	0.020754294
153	0x3ac44d6d	0.0014976688
154	0x3c4ec654	0.012620527
155	0x3bfbbcfc	0.007682441
156	0x3d04f6d0	0.03246194
157	0x3ca081cd	0.019593144
158	0x3c8f4dcf	0.017493157
159	0x3c87ca8b	0.016576072
160	0xbd451b37	-0.048121657
161	0xbb33acd3	-0.0027416244
162	0x3d1b6fac	0.037948295
163	0xbc094c25	-0.008379971
164	0x3cbd0967	0.023075772
165	0x3c991f48	0.018691674
166	0x3d4e81b4	0.050416663
167	0x3c4ad480	0.0123797655
168	0x3d2ee868	0.04270211
169	0xbc2325d3	-0.009957748
170	0x3c6116e6	0.01373837
171	0x3a1bb7d6	0.00059401745
172	0xbc1e071d	-0.009645251
173	0x3c5d995f	0.013525336
174	0xbd143f7c	-0.036193356
175	0xbd3b7a62	-0.04577101
176	0x3d215531	0.039387885
177	0xbc728a02	-0.014803411
178	0x3c945180	0.018105268
179	0x3c368ebc	0.011142429
180	0x3a3e09b5	0.0007249371
181	0xbb0317c0	-0.002000317
182	0x3cdc7adf	0.026914058
183	0xbd28cb0b	-0.041209262
184	0x3c0c405f	0.008560269
185	0x3c189575	0.009312977
186	0xbc70801f	-0.014678984
187	0xbb984173	-0.004646474
188	0xbca34d06	-0.019934189
189	0x3bc1b7a6	0.005911785
190	0xbccb4165	-0.024811456
191	0xbceb5e97	-0.028731627

transformer_encoder.layers.0.self_attn.out_proj.weight f4 [64, 64]
0	0xbe264dbd	-0.16240592
1	0x3d865e3c	0.065609425
2	0x3dc47e26	0.095943734
3	0xbb9459b3	-0.0045272945
4	0x3c51fbce	0.012816383
5	0xbd556b6a	-0.05210439
6	0x3d6f78b9	0.05846474
7	0xbdd813cc	-0.10550651
8	0x3d797e03	0.06091119
9	0x3d352406	0.044223808
10	0xbd96cd88	-0.07363421
11	0xbc53d110	-0.012928262
12	0xbdcbe8bb	-0.09956499
13	0x3df49fea	0.11944564
14	0xbe179ffb	-0.14807121
15	0x3ddfb182	0.10922529
16	0x3c976444	0.018480428
17	0x3c785ff4	0.015159596
18	0x3e512431	0.20423962
19	0xbd9cf453	-0.07663789
20	0x3e0b4427	0.13600217
21	0x3e4c5420	0.19953966
22	0xbe2a861e	-0.16652724
23	0x3d6cf993	0.0578552
24	0x3cf59235	0.029976944
25	0xbdccdf25	-0.10003499
26	0x3db92be0	0.090415716
27	0x3ce5cbe8	0.028051332
28	0xbd6d5c05	-0.057949085
29	0xbe269f92	-0.16271809
30	0xbe04808e	-0.12939665
31	0x3de1030d	0.1098691
32	0xbd413fca	-0.047179975
33	0xbe05843a	-0.13038722
34	0xbcf98461	-0.030458631
35	0xbd947001	-0.072479255
36	0x3df3e15a	0.11908217
37	0xbde381e3	-0.11108758
38	0xbe1868be	-0.14883706
39	0x3c7def1b	0.015498902
40	0x3ca4055e	0.02002209
41	0xbce659f5	-0.028119067
42	0xbb30d3ee	-0.0026981789
43	0x3de83ef1	0.1134013
44	0xbd0f7d3e	-0.03503155
45	0xbca4c946	-0.020115506
46	0xbc7ed8b6	-0.015554598
47	0x3d10e963	0.035378825
48	0x3e088e07	0.13335429
49	0x3d65534b	0.055987637
50	0x3e656c0c	0.22404498
51	0xbd634b3c	-0.05549167
52	0x3de03fef	0.10949694
53	0xbd478f20	-0.04872048
54	0xbcb3b971	-0.021939011
55	0xbe343f78	-0.17602336
56	0x3e05726f	0.13031934
57	0x373a8856	1.1118207e-05
58	0x3dead1c6	0.11465792
59	0x3e0a8f78	0.13531291
60	0xbdd96e60	-0.106167555
61	0xbda30619	-0.079601474
62	0xbd37671f	-0.04477608
63	0xbcfba079	-0.030716168
64	0xbc37a137	-0.01120787
65	0xbe069a21	-0.13144733
66	0x3bd2a59f	0.006428435
67	0xbd2ba4ff	-0.0419054
68	0x3d83da36	0.06438105
69	0xbd664471	-0.056217615
70	0xbe005149	-0.12531008
71	0x3e569596	0.209555
72	0x3ca4388c	0.020046495
73	0x3d00e005	0.03146364
74	0x3d556cfc	0.05210589
75	0x3dd011e6	0.10159664
76	0xbb94530b	-0.004526501
77	0xbd94b576	-0.072611734
78	0x3bb35e19	0.005473864
79	0x3d4d30da	0.050095417
80	0x3dedeba4	0.116172105
81	0x3dbad81a	0.09123249
82	0xbe1fe612	-0.15615109
83	0xbdb263c8	-0.08710438
84	0xbd23ac1d	-0.039959062
85	0x3d92e355	0.071722664
86	0x3dc1bf9e	0.09460376
87	0x3d515a98	0.051111788
88	0x3e1fc7a8	0.15603507
89	0xbd872eb3	-0.06600704
90	0x3d918599	0.0710556
91	0xbd5bac9b	-0.053631406
92	0x3e4cbb45	0.19993313
93	0x3dcf7c2c	0.10131106
94	0xbbe5fd80	-0.007018745
95	0xbc4ddd51	-0.012564973
96	0xbcfb8402	-0.030702595
97	0x3d552181	0.052033905
98	0xbd7402e7	-0.05957308
99	0x3d542c71	0.051800195
100	0xbc5207c4	-0.012819234
101	0xbd83baae	-0.06432091
102	0x3e58fefe	0.21191022
103	0x3dbc6f40	0.09200907
104	0x3e11159b	0.14168398
105	0x3cded468	0.027200893
106	0x3da99a57	0.08281391
107	0xbd8113dc	-0.06302616
108	0xbddc242c	-0.10749087
109	0x3dcada13	0.099048756
110	0xbc16bd67	-0.0092004305
111	0xbe0a744e	-0.13520929
112	0xbdfb8fa9	-0.122832604
113	0xbd93184b	-0.07182368
114	0x3c99a25d	0.018754179
115	0x3cfe633c	0.031053178
116	0xbd9f3087	-0.07772928
117	0x3de899a8	0.113574326
118	0xbdedc695	-0.11610142
119	0x3e99822a	0.2998212
120	0x3d77d98f	0.060510214
121	0x3e4c0128	0.19922316
122	0xbd172521	-0.036900643
123	0x3d9183bd	0.07105205
124	0xbd4cfbe2	-0.0500449
125	0x3e15bfad	0.146239
126	0x3cc6afd7	0.024253769
127	0xbd45e0b0	-0.04830998
128	0xbc2bdf4e	-0.010490252
129	0x3e204f36	0.15655217
130	0xbd9cb7e4	-0.07652262
131	0xbb531629	-0.0032209253
132	0x3d66c9b4	0.056344703
133	0xbe2e069a	-0.16994706
134	0xbe1a65cc	-0.15077895
135	0x3d9abbe3	0.07555368
136	0xbd847bce	-0.06468926
137	0x3c5c0a38	0.013430171
138	0x3d87c8b8	0.06630081
139	0x3c9be056	0.01902787
140	0x3d921f12	0.071348324
141	0x3d22b9f5	0.039728124
142	0x3dc7014d	0.09717045
143	0x3c3b9eac	0.011451405
144	0x3de74321	0.11292101
145	0x3e0cd2ef	0.1375234
146	0x3d8f8029	0.070068665
147	0x3d6db6cd	0.05803566
148	0x3d222907	0.039589908
149	0x3c91445e	0.017732795
150	0x3da7220b	0.0816079
151	0xbdcef996	-0.101061985
152	0x3d644447	0.055729177
153	0x3e1ad61c	0.15120739
154	0xbb4eafbe	-0.0031537856
155	0xbb7eb3b6	-0.003886444
156	0xbd8846e5	-0.06654147
157	0xbda48de0	-0.08034873
158	0xbd764c87	-0.060131576
159	0x3c12ce93	0.008960384
160	0x3daeda9a	0.08537789
161	0xbdab1265	-0.08353118
162	0xbdda1196	-0.106478855
163	0xbd0015b0	-0.031270683
164	0xbd3ca83d	-0.046058882
165	0x3d19dec2	0.037565954
166	0xbd439bd7	-0.047756042
167	0x3db596c7	0.08866649
168	0xbcccadc8	-0.02498521
169	0x3d382dd9	0.0449656
170	0x3cce82bb	0.025208822
171	0xbd76c89f	-0.06024992
172	0xbdb50401	-0.08838654
173	0xbd98256c	-0.07429013
174	0xbd72267e	-0.05911874
175	0x3d8f8886	0.07008462
176	0xbd3b7321	-0.045764092
177	0xbd542757	-0.05179533
178	0x3dbffbe4	0.09374216
179	0xbdbf7eca	-0.09350355
180	0x3e347be8	0.17625391
181	0x3e1912a4	0.14948517
182	0x3daf9b2a	0.08574517
183	0x3d979b2e	0.07402645
184	0xbe10c950	-0.14139295
185	0xbb044d0e	-0.002018753
186	0xbd82d128	-0.0638755
187	0x3d92ff57	0.071776085
188	0x3da63923	0.08116367
189	0xbd951fd9	-0.07281465
190	0xbda4b6cf	-0.080426805
191	0x3e42e298	0.19031751
192	0xbce6bc65	-0.028166005
193	0xbe1e4779	-0.15456952
194	0x3da4a9b7	0.08040183
195	0xbbe96431	-0.0071225394
196	0xbc8ae17d	-0.016953224
197	0x3e559a8e	0.20859739
198	0x3e020c64	0.12700039
199	0x3e248c7f	0.1606922
200	0xbd779fcf	-0.06045514
201	0x3d3f6e8b	0.04673628
202	0xbb98d496	-0.004664014
203	0xbd5583c6	-0.052127622
204	0x3dff2b74	0.1245946
205	0x3dcec377	0.10095876
206	0xbe2b5b8b	-0.1673414
207	0x3e4b8bc7	0.1987754
208	0x3d8fc986	0.070208594
209	0xbcca1fa0	-0.024673283
210	0xbc6c44d0	-0.014420703
211	0x3cd1fd83	0.02563358
212	0xbc188d03	-0.009310964
213	0xbd266df9	-0.04063222
214	0x3e071e66	0.1319519
215	0x3d51a904	0.051186576
216	0x3db06703	0.08613398
217	0xbe325e84	-0.17418867
218	0x3e41de43	0.18932442
219	0xbdb0dbfc	-0.08635709
220	0xbd0c2683	-0.034216415
221	0x3d7c72c8	0.0616329
222	0xbe15210c	-0.14563388
223	0x3d55d534	0.05220528
224	0xbdd90697	-0.1059696
225	0x3c964bef	0.018346755
226	0xbc0576af	-0.008145972
227	0xbd0eabce	-0.034831814
228	0xbe42e637	-0.19033132
229	0x3dab6054	0.083679825
230	0xbc9b5be9	-0.018964725
231	0xbdc7c5f1	-0.09754551
232	0x3d95ffc6	0.073241755
233	0x3cc23059	0.023704695
234	0x3e0be1d3	0.13660364
235	0x3e0b9958	0.13632715
236	0xbc0ce46a	-0.00859938
237	0x3cdc0235	0.026856521
238	0x3d93f53d	0.0722451
239	0xbd8c5bff	-0.06853484
240	0x3c6efd32	0.014586734
241	0x3e4fbf6e	0.20287868
242	0xbe533bdd	-0.20628305
243	0x3c088693	0.008332866
244	0xbe524117	-0.20532642
245	0x3d7b9b71	0.061427537
246	0xbd216ce6	-0.039410494
247	0xbdc6d227	-0.09708052
248	0x3d1faa21	0.038980607
249	0xb8cd36a1	-9.785337e-05
250	0xbe15d0aa	-0.1463038
251	0xbc36bb03	-0.0111529855
252	0x3c91d14c	0.017799996
253	0x3dc60ea5	0.09670762
254	0xbe8ff7d9	-0.2811878
255	0x3d594613	0.053045344

transformer_encoder.layers.0.self_attn.out_proj.bias f4 [64]
0	0xbd191328	-0.037371784
1	0xbd091006	-0.033462547
2	0xbd490e60	-0.049085975
3	0xbab13f59	-0.0013522907
4	0x3d251602	0.04030419
5	0xbc7e2121	-0.015510828
6	0x3ba794cf	0.005114175
7	0x3c4215c8	0.011846013
8	0x3af8fe5b	0.0018996702
9	0x3bf8898a	0.0075847553
10	0xbca508a1	-0.020145716
11	0x3c418973	0.011812556
12	0x3c637574	0.0138829835
13	0xbc31f382	-0.010861279
14	0x3cd1efdd	0.025627071
15	0xbcde0a60	-0.027104557
16	0x3d21429d	0.039370168
17	0x3d10f495	0.0353895
18	0x3b8c0d29	0.0042740298
19	0xbc788b6b	-0.015169959
20	0xbc828efc	-0.01593732
21	0xbc0d7c53	-0.008635598
22	0xbb47000d	-0.003036502
23	0x3b80d12f	0.0039311866
24	0xbdb404b7	-0.08789962
25	0x3c42cf67	0.011890269
26	0xbb4ee409	-0.0031569025
27	0x3d033ae3	0.03203858
28	0x3d105719	0.035239313
29	0x3b85bb7f	0.004081189
30	0xbb45dcf7	-0.003019152
31	0x3d3443e4	0.044010058
32	0xbc16e9c0	-0.009211004
33	0x3bd998da	0.006640536
34	0x3bc2b474	0.005941922
35	0xbbed7832	-0.0072469944
36	0xbc8215cf	-0.01587954
37	0x3c71adbd	0.014750895
38	0x3bf26897	0.007397722
39	0x3c5350fc	0.012897726
40	0xbd453f7b	-0.048156243
41	0x3cdeaab1	0.027181001
42	0xbc1726ce	-0.00922556
43	0xbc77fb25	-0.015135561
44	0xbc5482ee	-0.012970669
45	0xbcb02856	-0.021503609
46	0x3ce6cb86	0.02817322
47	0xbcdbd2c5	-0.026833901
48	0xbd11604f	-0.035492238
49	0xbab4e54e	-0.0013801248
50	0xbc8369cb	-0.016041657
51	0xbcacc027	-0.02108772
52	0xbba9d8ea	-0.005183329
53	0x3ab2fcfe	0.001365572
54	0xbc6bc482	-0.014390113
55	0x3c85eb65	0.016347596
56	0xb99a712c	-0.0002945749
57	0x3d5e1cdc	0.05422674
58	0x3c703f54	0.014663536
59	0xb9a0a46a	-0.00030640076
60	0xbd869ab6	-0.065724775
61	0xbc35a910	-0.011087671
62	0xbb6fcdd1	-0.0036591182
63	0x3c4d6cc8	0.0125381425
